…
init dataset ProcessedDataset
{'name': 'IDCF_LGCN', 'embedding_size': 64, 'n_layers': 3, 'n_headers': 4, 'lgcn_path': '/Users/patrick/Downloads/igcn_cf-master/crux-recommendModels/savedModel/LightGCN.pth', 'device': device(type='cpu'), 'dataset': <dataset.ProcessedDataset object at 0x13a9da470>}
{'name': 'IDCFTrainer', 'optimizer': 'Adam', 'lr': 0.001, 'l2_reg': 0.0001, 'contrastive_reg': 0.001, 'device': device(type='cpu'), 'n_epochs': 20, 'batch_size': 100, 'dataloader_num_workers': 0, 'test_batch_size': 100, 'topks': [3], 'dataset': <dataset.ProcessedDataset object at 0x13a9da470>, 'model': IDCF_LGCN(
  (embedding): Embedding(1644, 64)
  (gat_units): ModuleList(
    (0): RelationGAT(
      (wq): Linear(in_features=64, out_features=64, bias=True)
      (wk): Linear(in_features=64, out_features=64, bias=True)
      (wv): Linear(in_features=64, out_features=64, bias=True)
    )
    (1): RelationGAT(
      (wq): Linear(in_features=64, out_features=64, bias=True)
      (wk): Linear(in_features=64, out_features=64, bias=True)
      (wv): Linear(in_features=64, out_features=64, bias=True)
    )
    (2): RelationGAT(
      (wq): Linear(in_features=64, out_features=64, bias=True)
      (wk): Linear(in_features=64, out_features=64, bias=True)
      (wv): Linear(in_features=64, out_features=64, bias=True)
    )
    (3): RelationGAT(
      (wq): Linear(in_features=64, out_features=64, bias=True)
      (wk): Linear(in_features=64, out_features=64, bias=True)
      (wv): Linear(in_features=64, out_features=64, bias=True)
    )
  )
  (w_out): Linear(in_features=256, out_features=64, bias=True)
)}
/opt/anaconda3/envs/igcn_cf/lib/python3.10/site-packages/torch/amp/autocast_mode.py:198: UserWarning: User provided device_type of 'cuda', but CUDA is not available. Disabling
  warnings.warn('User provided device_type of \'cuda\', but CUDA is not available. Disabling')
Epoch 0/20, Loss: 0.326938, Time: 6.424s
Validation result. Precision: 33.991%@3, Recall: 56.406%@3, NDCG: 49.906%@3, Time: 0.425s
…
